…
1/9 [==>...........................] - ETA: 0s9/9 [==============================] - 0s 1ms/step
1/9 [==>...........................] - ETA: 0s9/9 [==============================] - 0s 1ms/step
Model: "model"
_________________________________________________________________
 Layer (type)                Output Shape              Param #   
=================================================================
 input_1 (InputLayer)        [(None, 4)]               0         
                                                                 
 multi_category_encoding (M  (None, 4)                 0         
 ultiCategoryEncoding)                                           
                                                                 
 dense (Dense)               (None, 32)                160       
                                                                 
 re_lu (ReLU)                (None, 32)                0         
                                                                 
 dense_1 (Dense)             (None, 32)                1056      
                                                                 
 re_lu_1 (ReLU)              (None, 32)                0         
                                                                 
 dense_2 (Dense)             (None, 1)                 33        
                                                                 
 classification_head_1 (Act  (None, 1)                 0         
 ivation)                                                        
                                                                 
=================================================================
Total params: 1249 (4.88 KB)
Trainable params: 1249 (4.88 KB)
Non-trainable params: 0 (0.00 Byte)
_________________________________________________________________
None
