…
1/5 [=====>........................] - ETA: 0s5/5 [==============================] - 0s 5ms/step
1/5 [=====>........................] - ETA: 0s5/5 [==============================] - 0s 5ms/step
Model: "model"
_________________________________________________________________
 Layer (type)                Output Shape              Param #   
=================================================================
 input_1 (InputLayer)        [(None, 30)]              0         
                                                                 
 multi_category_encoding (M  (None, 30)                0         
 ultiCategoryEncoding)                                           
                                                                 
 normalization (Normalizati  (None, 30)                61        
 on)                                                             
                                                                 
 dense (Dense)               (None, 32)                992       
                                                                 
 re_lu (ReLU)                (None, 32)                0         
                                                                 
 dense_1 (Dense)             (None, 32)                1056      
                                                                 
 re_lu_1 (ReLU)              (None, 32)                0         
                                                                 
 dense_2 (Dense)             (None, 1)                 33        
                                                                 
 classification_head_1 (Act  (None, 1)                 0         
 ivation)                                                        
                                                                 
=================================================================
Total params: 2142 (8.37 KB)
Trainable params: 2081 (8.13 KB)
Non-trainable params: 61 (248.00 Byte)
_________________________________________________________________
None
