…
Total elapsed time: 00h 05m 43s
32/32 [==============================] - 1s 12ms/step - loss: 2.2577 - accuracy: 0.1750
1532/1532 [==============================] - 8s 4ms/step - loss: 2.0949 - accuracy: 0.2565
Accuracy =  25.646939873695374 %
Model: "model"
_________________________________________________________________
 Layer (type)                Output Shape              Param #   
=================================================================
 input_1 (InputLayer)        [(None, 32, 32, 3)]       0         
                                                                 
 cast_to_float32 (CastToFlo  (None, 32, 32, 3)         0         
 at32)                                                           
                                                                 
 normalization (Normalizati  (None, 32, 32, 3)         7         
 on)                                                             
                                                                 
 conv2d (Conv2D)             (None, 30, 30, 32)        896       
                                                                 
 conv2d_1 (Conv2D)           (None, 28, 28, 64)        18496     
                                                                 
 max_pooling2d (MaxPooling2  (None, 14, 14, 64)        0         
 D)                                                              
                                                                 
 dropout (Dropout)           (None, 14, 14, 64)        0         
                                                                 
 flatten (Flatten)           (None, 12544)             0         
                                                                 
 dropout_1 (Dropout)         (None, 12544)             0         
                                                                 
 dense (Dense)               (None, 10)                125450    
                                                                 
 classification_head_1 (Sof  (None, 10)                0         
 tmax)                                                           
                                                                 
=================================================================
Total params: 144849 (565.82 KB)
Trainable params: 144842 (565.79 KB)
Non-trainable params: 7 (32.00 Byte)
_________________________________________________________________
None
/home/ddp/anaconda3/envs/automl/lib/python3.10/site-packages/keras/src/engine/training.py:3103: UserWarning: You are saving your model as an HDF5 file via `model.save()`. This file format is considered legacy. We recommend using instead the native Keras format, e.g. `model.save('my_model.keras')`.
…
