…
1/7 [===>..........................] - ETA: 0s7/7 [==============================] - 0s 2ms/step
1/7 [===>..........................] - ETA: 0s7/7 [==============================] - 0s 2ms/step
Model: "model"
_________________________________________________________________
 Layer (type)                Output Shape              Param #   
=================================================================
 input_1 (InputLayer)        [(None, 20)]              0         
                                                                 
 multi_category_encoding (M  (None, 20)                0         
 ultiCategoryEncoding)                                           
                                                                 
 normalization (Normalizati  (None, 20)                41        
 on)                                                             
                                                                 
 dense (Dense)               (None, 32)                672       
                                                                 
 re_lu (ReLU)                (None, 32)                0         
                                                                 
 dense_1 (Dense)             (None, 256)               8448      
                                                                 
 re_lu_1 (ReLU)              (None, 256)               0         
                                                                 
 dropout (Dropout)           (None, 256)               0         
                                                                 
 dense_2 (Dense)             (None, 1)                 257       
                                                                 
 classification_head_1 (Act  (None, 1)                 0         
 ivation)                                                        
                                                                 
=================================================================
Total params: 9418 (36.79 KB)
Trainable params: 9377 (36.63 KB)
Non-trainable params: 41 (168.00 Byte)
_________________________________________________________________
None
