…
 1/70 [..............................] - ETA: 0s28/70 [===========>..................] - ETA: 0s59/70 [========================>.....] - ETA: 0s70/70 [==============================] - 0s 2ms/step
Model: "model"
_________________________________________________________________
 Layer (type)                Output Shape              Param #   
=================================================================
 input_1 (InputLayer)        [(None, 30)]              0         
                                                                 
 multi_category_encoding (M  (None, 30)                0         
 ultiCategoryEncoding)                                           
                                                                 
 normalization (Normalizati  (None, 30)                61        
 on)                                                             
                                                                 
 dense (Dense)               (None, 32)                992       
                                                                 
 batch_normalization (Batch  (None, 32)                128       
 Normalization)                                                  
                                                                 
 re_lu (ReLU)                (None, 32)                0         
                                                                 
 dense_1 (Dense)             (None, 32)                1056      
                                                                 
 batch_normalization_1 (Bat  (None, 32)                128       
 chNormalization)                                                
                                                                 
 re_lu_1 (ReLU)              (None, 32)                0         
                                                                 
 dense_2 (Dense)             (None, 1)                 33        
                                                                 
 classification_head_1 (Act  (None, 1)                 0         
 ivation)                                                        
                                                                 
=================================================================
Total params: 2398 (9.37 KB)
Trainable params: 2209 (8.63 KB)
Non-trainable params: 189 (760.00 Byte)
_________________________________________________________________
None
